手写数字界面/model.ckpt (torch_old, 118788 bytes, 14 tensors)

layer1.0.weight f4 [16, 1, 5, 5]
000000 2b 6a 93 bc db 1f af bc 4f 6b 20 be dd d4 86 3d
       -0.01799496 -0.021377495 -0.15665935 0.06583569
000010 b0 2b 0d be aa f8 0b 3a 6e b7 58 3e 83 73 8f bd
       -0.13786197 0.0005339483 0.21163723 -0.07004454
000020 5e a8 f5 3d 81 3e 11 3e e7 a6 2a bd ce 9c d2 3d
       0.11995004 0.14184 -0.041663077 0.10283814
000030 2c 55 1c 3e e8 f2 a8 bd dc af 22 3e ce 42 80 be
       0.15266865 -0.08249456 0.15887398 -0.25050968
000040 03 b0 6a bd 24 2f 3a bd 6e c8 86 3d 9a b7 f2 bd
       -0.057296764 -0.045455113 0.06581198 -0.118514255
000050 e3 53 2b bd 73 3d 25 be 88 34 2c be d3 b6 4e be
       -0.041828047 -0.16136722 -0.16816914 -0.2018693
000060 7d 3f 55 be b1 f8 f7 bc 79 d1 17 bd 87 6d 05 3e
       -0.20825 -0.030269952 -0.037065003 0.13030063
000070 bb 0e 09 bd 51 4f ec 3d 70 b3 08 3d a3 68 1b be
       -0.033461314 0.11538566 0.03337425 -0.15176634
000080 fe a8 e7 bd 09 ea f0 bb b8 89 98 3d 11 8d 36 3d
       -0.113115296 -0.007352118 0.07448143 0.044568125
000090 12 f9 cc 3d 57 55 16 be 2b 25 52 be 3a 1c 96 bd
       0.10008444 -0.14680992 -0.20521991 -0.073296025
0000a0 b4 cd 8f bd a4 40 d5 3d d8 37 01 3e c8 4c 42 3c
       -0.07021657 0.1041272 0.12618959 0.011859126
0000b0 e0 35 d3 bd f9 86 b1 3c 6e 97 48 bd f4 42 21 3d
       -0.1031301 0.021670805 -0.04897254 0.039370492
0000c0 fd 44 ec 3d 0b 41 be 3b f5 f8 16 bd 76 05 06 3d
       0.11536596 0.0058060936 -0.036858518 0.03272005
0000d0 27 08 51 3c 0f 67 9c 3c 27 7f 23 be 10 fd 7b bd
       0.012758291 0.01909211 -0.15966474 -0.061520636
0000e0 12 2a d2 3d 16 36 c7 3c 79 96 c2 3d 33 39 cf 3d
       0.102619305 0.024317782 0.09501357 0.10118332
0000f0 a7 2d 47 be 97 97 70 3d 6b 96 a8 3d 8d 8a 3a be
       -0.19451009 0.058738317 0.08231815 -0.18216915
000100 b7 44 0d 3d c9 ea 04 be 65 f2 30 bd 09 53 39 3e
       0.03448936 -0.12980188 -0.043199915 0.18098082
000110 12 2d e9 bd 45 2d 9f 3d 6a eb 14 be dc 19 8a bc
       -0.113855496 0.07772306 -0.14542928 -0.016858034
000120 f4 91 99 bd 8f 7a 2f 3e 14 bb c2 bd 73 91 1c be
       -0.074985415 0.17136596 -0.095083386 -0.1528986
000130 b9 9c 7e 3d 4f 09 25 be 53 26 e4 bc c2 0f b2 3d
       0.06216118 -0.16116832 -0.027850306 0.08694412
000140 09 63 49 3d 3f 97 08 3e 43 6c cb bd 23 f7 c3 bd
       0.049166713 0.13338946 -0.09932759 -0.09568622
000150 3c 9e 32 3e bd 6c 66 3e 54 d4 05 3e fe 8d f4 ba
       0.17443174 0.22502418 0.13069278 -0.001865804
000160 a8 91 33 be 96 4f e8 bd 2b c8 56 be 30 a3 0b bd
       -0.17536032 -0.11343305 -0.20974796 -0.034091175
000170 5e df 17 be ca 90 40 bc 45 db 36 3e a4 d3 bc 3c
       -0.14831302 -0.01175327 0.17857082 0.023050137
000180 cb f9 2c bd ef 56 31 3e 68 3e 3a 3a c2 a7 14 be
       -0.04223041 0.17318319 0.0007104636 -0.1451712
000190 ab c3 77 bd 0b 17 67 be 06 90 d2 3d 48 9b 43 3e
       -0.060489338 -0.22567384 0.102813765 0.19102204
0001a0 72 ed 55 bd 91 02 25 be ae 9a 2b be 7a 8b 0f 3e
       -0.0522284 -0.1611426 -0.16758224 0.1401805
0001b0 4c e8 bb 3c d2 c5 26 3d f1 8f 41 be 00 46 4b bc
       0.022937916 0.040716 -0.18902566 -0.012406826
0001c0 70 51 29 be 8c c2 63 3e a5 3a 30 be 3b 45 39 be
       -0.16534972 0.22242182 -0.17209871 -0.18092816
0001d0 8e 8e ba 3d 00 f8 d3 3d 1e 04 b3 3d c0 58 62 bd
       0.091092214 0.103500366 0.0874102 -0.05526042
0001e0 14 52 a5 bd 99 fb b2 3a 2e e6 0d 3d 67 73 c0 3d
       -0.08072296 0.0013655304 0.034643345 0.09397011
0001f0 9c ef 95 3d 2e 03 a1 bd dd 00 bc 3d bb 3a 31 3e
       0.073210925 -0.078619346 0.09179852 0.1730756
000200 07 f5 cf bd bf dc 54 be c4 3f c7 3d da be c3 3d
       -0.10154157 -0.20787333 0.09728959 0.095578864
000210 ef d8 02 3e 67 b4 80 be 35 07 7e be d8 b0 0c bc
       0.12778066 -0.25137636 -0.24807437 -0.008587085
000220 89 05 8d bd 0d ff ae 3d ca 7d 44 be be 45 44 3e
       -0.06885821 0.08544741 -0.1918861 0.1916723
000230 34 a9 8f be 00 db 95 bd 12 63 d0 3d e6 cf 5e 3e
       -0.2805878 -0.073171616 0.10175146 0.21758994
000240 d0 bb ef 3d 02 34 a3 3d 38 f5 80 3d 89 6e 08 3d
       0.11705744 0.07968904 0.06296772 0.03330854
000250 77 1b 96 3d 0b c5 90 bc 7d a3 6e 3e 4a 54 15 be
       0.07329457 -0.017672082 0.23304553 -0.14582935
000260 2c ed 01 3e c3 cf d4 3a c1 ea fe bd 31 c0 7d 3c
       0.1268813 0.0016236234 -0.124471195 0.0154877165
000270 b2 f3 a0 3d f8 f9 04 bd 48 8d 5c 3e e4 e1 60 be
       0.07858981 -0.03246495 0.2153827 -0.2196117
000280 e7 45 57 3d 4d 63 45 bd 60 cc cf 3d 15 d3 1f 3e
       0.0525569 -0.048190404 0.10146403 0.15607865
000290 cd 4a 27 bc e8 71 f4 3d ed c3 b0 bd 75 6b ab bc
       -0.010210705 0.119357884 -0.0863112 -0.020925263
0002a0 45 a2 e4 3d c5 43 69 bd 37 2b a8 3d 99 41 8d 3d
       0.11163763 -0.056949396 0.082113676 0.068972774
0002b0 b2 1e f9 bc 00 51 bf 3d d3 c2 e0 3d 9a f2 15 3d
       -0.030410144 0.093416214 0.1097466 0.036608316
0002c0 77 d1 9a 3d 20 29 4d be 44 c7 19 be fb b1 1d be
       0.075594835 -0.20035219 -0.1501742 -0.15399925
0002d0 d4 20 e7 3d 22 71 36 be 91 cb d8 bd 6e ee f7 bb
       0.11285558 -0.17816594 -0.10585702 -0.007566265
0002e0 e7 66 11 3e 4c 36 1e bc 32 76 54 3e 09 84 5f 3e
       0.1419941 -0.0096565 0.20748213 0.21827711
0002f0 f5 82 86 3d eb cf 4f 3c 2f b6 04 be d0 5d be 3d
       0.06567947 0.012683849 -0.12960123 0.09295237
000300 75 48 bc 3d a8 c4 ac 3d 74 18 08 3e 8a 81 11 3d
       0.091935076 0.08435947 0.13290578 0.03552393
000310 2f d4 0a be f7 6f ca bd 91 53 91 bd 1a 31 9c bd
       -0.13557504 -0.09884637 -0.07096017 -0.07626553
000320 0b 2f 98 bd 7f e3 32 be f6 29 c4 3c c7 8e 27 be
       -0.07430848 -0.17469595 0.02394579 -0.16363059
000330 74 ac bc bb 25 02 3f be 46 98 b5 bd 57 b6 49 be
       -0.0057578627 -0.18653162 -0.088669345 -0.19698463
000340 bf 32 ca 3c b1 2b 88 3d 14 e1 f6 bd 89 ff b1 bc
       0.0246824 0.066489585 -0.12054649 -0.021728294
000350 0b d2 3b bd af 31 51 3e 41 9e 3f 3d d2 84 f8 bd
       -0.04585461 0.20429109 0.046781782 -0.121347085
000360 5c fd 5f 3d 88 08 2c 3e 60 49 2f bd b2 ed f6 3d
       0.05468498 0.1680013 -0.042794585 0.120570555
000370 d4 8e 27 be 59 07 3c 3e 3d d5 e1 bd 4b 18 c5 3d
       -0.16363078 0.18362178 -0.11027 0.09623774
000380 38 f7 0d be 0d f3 5c be 01 7b 2f be d5 ea 32 bd
       -0.13863838 -0.21577092 -0.17136766 -0.043680985
000390 16 0f 02 3e ab 21 0b 3e 49 bc 6c 3c bb 57 01 bd
       0.12701067 0.13587062 0.014449188 -0.031577807
0003a0 e2 11 ea bd e5 16 84 be 0f 46 f0 3d f5 90 05 bc
       -0.11429192 -0.25798717 0.117321126 -0.008152236
0003b0 f4 50 00 be c3 32 06 3e c6 17 7f be a0 72 35 bd
       -0.12530881 0.13105302 -0.24911413 -0.044298768
0003c0 c3 f4 8b bd e6 2b 10 3e b5 a7 ac bc f2 d7 0a be
       -0.06833794 0.14079246 -0.021076063 -0.13558939
0003d0 48 7d 40 be 5f a6 53 3e f8 72 03 3e 39 e3 8e bd
       -0.18797791 0.20668934 0.12836826 -0.06976933
0003e0 54 d9 d0 3c bb d5 dd bc f7 c2 4e 3e 19 3e 09 3d
       0.025494255 -0.027079454 0.2019156 0.033506487
0003f0 db fd 84 be 5e 0b 3b bc e7 dd 81 bd f1 70 00 3d
       -0.25974926 -0.011416284 -0.06341153 0.03135771

layer1.0.bias f4 [16]
000000 ff 48 48 bd cf cc f0 3d 26 82 2a 3c e5 3c d9 bd
       -0.04889774 0.11757814 0.010407006 -0.10607318
000010 7e dd 35 3e e7 79 21 bd 87 78 91 be 89 23 73 3d
       0.17760274 -0.039422896 -0.28412268 0.05936006
000020 76 93 59 3e 98 0e 76 3d cf f4 8a 3d bd 7d 2d be
       0.21247658 0.06007251 0.06784975 -0.16942497
000030 db a5 2f be e2 09 0a 3d 02 4e a1 3d 15 2c b8 bc
       -0.17153113 0.03370083 0.07876207 -0.022481957

layer1.1.weight f4 [16]
000000 dc 42 95 3f 4d 98 8f 3f b1 c4 83 3f eb c2 80 3f
       1.1661029 1.1218354 1.02944 1.0059484
000010 18 c3 84 3f 88 ac 63 3f a0 b6 52 3f 6c c3 69 3f
       1.0372038 0.88935137 0.82309914 0.91313815
000020 66 3a 8c 3f 8c 07 8c 3f 15 65 49 3f e7 25 8c 3f
       1.0955322 1.0939803 0.78669864 1.0949067
000030 fc 44 78 3f 1a 4b 84 3f 49 e2 7c 3f 8a e5 62 3f
       0.9698026 1.0335419 0.98782784 0.886315

layer1.1.bias f4 [16]
000000 9d 21 b0 bd 75 fe 23 be 7c 78 ae bd 95 c8 b1 bd
       -0.08600161 -0.16015036 -0.08519074 -0.08680836
000010 ea 23 47 bd 9e 3f 48 be 46 95 70 be d6 cf 45 be
       -0.048618235 -0.19555518 -0.23494443 -0.19317564
000020 cb 63 a8 bd b3 23 c2 bd a2 01 9b be da 2c 53 be
       -0.08222159 -0.09479465 -0.30274683 -0.20622578
000030 26 b0 97 bd 4b bc c6 bd 75 a6 19 be fa 1b bd bd
       -0.074066445 -0.09703883 -0.15004905 -0.09233852

layer1.1.running_mean f4 [16]
000000 00 c0 16 be c3 75 db 3d 78 d4 c7 bc 85 34 02 be
       -0.1472168 0.10715821 -0.024393305 -0.12715347
000010 b4 a7 0e 3e f0 e8 0c bd 9a f6 37 be b5 b2 72 3d
       0.13931161 -0.034401834 -0.17965165 0.05925246
000020 4f 83 fd 3d e3 45 0a bd 16 b6 44 3e 6c 99 73 be
       0.12378561 -0.033758055 0.19210085 -0.23788995
000030 29 1c 5d be 4c 2c bd bc b3 55 a6 3d 38 f5 16 bd
       -0.21592773 -0.023092411 0.081218146 -0.036854953

layer1.1.running_var f4 [16]
000000 88 b4 4a 3d 8d 23 f0 3b c1 ae 50 3c c5 60 27 3c
       0.049488574 0.0073284567 0.012736977 0.010215943
000010 85 c2 45 3d 6c ca f6 3c 79 ef 0c 3d ea 25 9e 3c
       0.04828121 0.03012582 0.034408066 0.019305188
000020 7a 24 77 3d f6 7e 46 3d a5 93 69 3d a1 da 3c 3d
       0.06033752 0.048460923 0.05702557 0.04610694
000030 e0 e9 9f 3d 8d 95 12 3d 5e c0 10 3d c7 7a 4d 3d
       0.0780828 0.035787154 0.035339706 0.050165918

layer2.0.weight f4 [32, 16, 5, 5]
000000 e4 7d 17 3d f3 22 54 3c 0e d8 0e bc 55 0e f3 bc
       0.036985293 0.012947786 -0.008718504 -0.02966992
000010 bc b6 c7 3d b4 35 84 3c d8 77 e3 3c 15 57 93 bc
       0.09751651 0.016138889 0.027767107 -0.01798586
000020 95 03 07 3d 2a 14 76 bb 10 29 9a bd dd fe d8 bc
       0.0329624 -0.003754864 -0.07527363 -0.026488716
000030 95 8c c8 3d 85 b5 1f 3e 82 99 20 3d 4d ea cc 3c
       0.09792439 0.15596588 0.039208896 0.025014067
000040 d6 e8 39 3d 84 00 09 3d 93 eb 3f bc 87 93 4d 3d
       0.045388065 0.033447757 -0.01171388 0.05018952
000050 48 08 9b bc 27 6a 97 bd e5 56 6a bb a3 a2 b8 3d
       -0.018924847 -0.07393294 -0.003575736 0.090153955
000060 4f 14 99 3d c8 30 68 bc 24 a4 3f 3c 67 7a 92 3c
       0.07474577 -0.014171787 0.011696849 0.017880632
000070 7c 22 8a bd a2 64 15 be 47 81 4c 3c d1 7b 2e bc
       -0.067448586 -0.1458917 0.012481994 -0.010649637
000080 98 38 85 bc fc fb 81 bd 7c 84 81 bd 0c 3e be bc
       -0.016262338 -0.0634689 -0.063240975 -0.023222946
000090 00 77 e3 bb 85 d0 8c 3c 52 29 27 3d 6d cf f5 bc
       -0.006941676 0.017189274 0.04081089 -0.030006135
0000a0 03 22 93 3c c4 26 1a bd d9 4b 37 bd 13 01 65 bc
       0.017960554 -0.037634626 -0.04475007 -0.013977307
0000b0 02 7a 83 bd ff e9 8f 3c ac db 73 bd 8c 06 84 bd
       -0.064197555 0.017567633 -0.059535667 -0.06446561
0000c0 ee 20 8e bd 98 ce 8f 3c 93 c9 ed 3c 7a d9 37 3d
       -0.069398746 0.017554566 0.029026782 0.044885136
0000d0 87 ac dc 3c 50 50 74 3d d1 e0 b5 3d a8 d9 3a 3d
       0.026937736 0.059646904 0.08880771 0.04561773
0000e0 28 8b 8a bc bb 0c b4 3a 19 87 95 3c fb 5c bb 3a
       -0.016912058 0.0013736704 0.018252896 0.0014294678
0000f0 07 bc 1e bd 2d db 0d bd 51 ff 12 bd c0 7b b5 bc
       -0.038753536 -0.03463285 -0.03588802 -0.022153735
000100 15 15 c1 bd 84 21 53 bd 35 18 11 bd 7d c8 a4 bd
       -0.09427849 -0.051545635 -0.035423476 -0.080460526
000110 3f e9 d9 bd 77 6c d1 bd d2 93 a6 bc 47 11 64 bd
       -0.10640191 -0.10225766 -0.020334158 -0.05568054
000120 4c 88 5b bd 2a 29 4a bd c5 6f 50 bc 4c 77 38 3c
       -0.05359678 -0.049355663 -0.01272196 0.011258911
000130 a4 85 88 3a 03 04 02 3c fc bd 6a 3d 8f 52 09 3d
       0.0010415805 0.007935527 0.05731009 0.033526
000140 c4 7d 22 3c f2 f5 62 ba 26 6d 00 3d 0c df a0 3d
       0.00991768 -0.00086578645 0.031354092 0.07855043
000150 b9 d3 aa 3c dc 8a 19 bd 68 6b 99 3d 94 14 4e 3d
       0.02085291 -0.037485942 0.07491189 0.050312594
000160 e9 e2 5c 3c 8b c3 f1 bc b3 66 77 3c f7 0b 8f 3d
       0.013481834 -0.029512187 0.015100169 0.06984704
000170 54 75 93 3d 50 8f d2 3c b2 53 02 bd a8 1c 87 bd
       0.07200113 0.025703102 -0.0318181 -0.065972626
000180 bd ab 04 be 19 60 7b bd a7 33 d8 bb 2e fb 4c 3c
       -0.12956138 -0.061370943 -0.0065979543 0.012511058
000190 56 cc c3 3d 08 00 d8 3d 6c f4 e7 3c 37 d7 51 3d
       0.09560458 0.10546881 0.028314792 0.051230635
0001a0 35 17 e0 3c 98 cc 68 3d 50 9c 2e 3c 47 61 8c 3c
       0.027354816 0.05683574 0.010657385 0.01713623
0001b0 38 09 47 3c f0 b4 22 3c e2 27 2b 3a 8e f5 85 bb
       0.012148194 0.009930834 0.00065290753 -0.0040881103
0001c0 62 54 e2 3c 5b 73 34 3d f6 b6 ab bb d9 54 5e bc
       0.027628127 0.044055324 -0.0052403165 -0.013570034
0001d0 a7 37 f6 3b f2 92 c6 3c 10 a4 26 bb c1 82 5a bc
       0.0075139585 0.02423999 -0.0025427379 -0.013336838
0001e0 e6 9c 19 3d 5e 7d 13 bd 00 69 09 3d d7 6a 2a bc
       0.037503146 -0.03600823 0.0335474 -0.010401449
0001f0 6a 34 63 bd b7 46 8a b9 81 82 77 bd f6 59 c6 bc
       -0.055469908 -0.00026374098 -0.060427193 -0.024212819
000200 1b 02 11 bd 25 47 1c bb ef 7d 6e bb 27 68 50 bd
       -0.0354024 -0.0023846116 -0.003639098 -0.050880577
000210 de e4 58 bd 30 19 2f 3d 56 92 26 bc 2f 02 b1 bb
       -0.05295264 0.04274863 -0.010166725 -0.0054018716
000220 99 e2 e8 bc 44 d2 fc bc a9 a2 f0 3c f9 55 f7 bc
       -0.028428363 -0.030861981 0.029374437 -0.030192362
000230 c7 fc a7 3c 31 00 88 bc 4f 1f 5e 3b 6a 2e cf 3c
       0.020506276 -0.016601654 0.0033893173 0.025290687
000240 d0 10 30 3d 05 0c 2c 3d dd 5e a5 3b ab 77 b3 3c
       0.042984784 0.04200365 0.005046709 0.021907648
000250 90 6d da 3c 3f 4c 84 3c de f5 41 bc b8 5e a8 3c
       0.026663572 0.016149638 -0.011838404 0.020552978
000260 7b 66 1f 3b bb 59 e3 3b 95 1a 00 bd fa be b3 3c
       0.0024322558 0.006938187 -0.03127535 0.02194165
000270 e4 dd e3 3b c8 ff 59 3d b1 01 14 3d c4 2b 03 3a
       0.0069539417 0.053222448 0.036134426 0.0005003775
000280 ee 42 26 3c 2a 9d c8 3c 83 1b 84 bc 13 2e 3d bd
       0.010147793 0.024489004 -0.0161264 -0.046186518
000290 90 be 35 bc 9c f9 2d bd 9a 5c 75 bd ec 04 31 bd
       -0.011092797 -0.042474374 -0.059902765 -0.043217584
0002a0 6e ed 6b bd fa 6b 3b bd d2 fd 97 bc b7 8d 82 bc
       -0.057599477 -0.04575727 -0.018553648 -0.015936716
0002b0 36 26 6f bd f4 dd a7 3c e6 a6 3f 3c 84 8a 8c bb
       -0.05838605 0.020491578 0.0116975065 -0.0042889733
0002c0 50 f5 1a bd 32 2a 46 3c 80 ba 0f bd 8b 5d a5 bb
       -0.037831604 0.012095021 -0.03508997 -0.0050465516
0002d0 a3 f7 35 bc 6c 54 a3 3b b4 57 3f bd 03 b1 8e 3c
       -0.0111064045 0.004984429 -0.0467145 0.01741839
0002e0 66 1a d1 3c bd 62 63 3d 5a a9 30 3b 81 37 5e bc
       0.025525283 0.055514086 0.002695641 -0.013563038
0002f0 8b 3f cd bb 68 54 06 3b 4f cd bb 3c 9e 38 4a 3c
       -0.0062636784 0.0020497087 0.022925047 0.0123426
000300 2a 16 2f bd 9e 4f 29 3c c3 65 54 3d 36 93 10 bc
       -0.042745747 0.010333924 0.05185486 -0.00882416
000310 ed 38 8d bc f5 a1 10 3d e9 19 54 3d 15 34 89 3d
       -0.017239058 0.035310704 0.051782522 0.06699387
000320 8a f5 84 3b 88 30 72 3a 97 0b d4 bc d4 ac dd 3c
       0.004057591 0.0009238799 -0.025884433 0.02705995
000330 c6 e6 e7 3d a0 d2 00 3c fa 34 1f 3d d9 8d b2 bc
       0.113233134 0.007862717 0.03886888 -0.021796154
000340 27 32 d4 bb 7b 29 3c 3c 5a c8 87 3d ff 68 85 bc
       -0.006475705 0.011484499 0.06630011 -0.016285418
000350 eb 9c 40 bd a8 ca c1 bc dc 05 74 bd b6 2a 99 3c
       -0.04702465 -0.023656204 -0.0595759 0.018697124
000360 d5 6a 63 3d a2 1a 08 bd d7 e8 07 bb 1f 8f b5 3d
       0.055521805 -0.033228524 -0.0020738149 0.08865189
000370 22 46 70 bc 85 b7 80 3d 66 94 da 3d f6 fb 70 3d
       -0.014665158 0.062850036 0.10672836 0.05883404
000380 74 60 a8 3d 14 06 5a 3c 07 92 05 bd 44 29 aa 3c
       0.08221522 0.013307113 -0.032609966 0.02077163
000390 d0 59 d6 3b 38 4f 04 bd 43 5d 83 bb e7 54 81 3d
       0.006541468 -0.03230211 -0.0040089204 0.06315022
0003a0 82 a3 11 3d bd af 0b bd 54 69 2e bd 2e c1 4e 3d
       0.035556324 -0.034103144 -0.042580917 0.0504772
0003b0 e3 00 6f 3b 18 fd 6b 3d b6 f6 e5 bc 84 71 2e bd
       0.0036469034 0.057614416 -0.028071743 -0.042588726
0003c0 c8 32 83 3c b5 f6 8b bd d9 1e 8d bd 2e 65 22 bd
       0.016015425 -0.06834165 -0.06890649 -0.039647274
0003d0 87 01 94 bd 03 31 d7 3b 68 76 df 3c c7 b8 7e 3b
       -0.07226854 0.006567122 0.02727814 0.003886746
0003e0 15 d5 b1 bd f5 f7 c7 bd bd 59 80 bd d8 29 d7 bc
       -0.0868322 -0.09764091 -0.06267116 -0.02626507
0003f0 8d 44 2a bd 46 2c 2a 3d 09 f6 39 3d ed 0f 40 bd
       -0.04156928 0.04154613 0.045400653 -0.046890188

layer2.0.bias f4 [32]
000000 b9 a5 4f bd ce 71 94 3c cc 59 80 3d 20 01 f3 3c
       -0.050695155 0.018120673 0.062671274 0.029663622
000010 5b 68 07 3d dc 82 2a 3c 6d f0 1c bd 03 38 8e 3d
       0.033058506 0.010407176 -0.038315225 0.06944277
000020 5a 21 f3 bc 38 7b 78 b9 b0 df bc bc 1f bf 10 bc
       -0.02967899 -0.00023697026 -0.023055881 -0.008834629
000030 9d 18 18 3d 56 e9 28 bc 19 ed 88 bd 7f f8 2e 3c
       0.037132848 -0.010309538 -0.06685848 0.010679363
000040 49 5f e4 3b 42 3e 85 3c 89 d8 2a bd 14 62 0b bd
       0.0069693667 0.016265038 -0.04171041 -0.03402908
000050 c0 4b 7e 3c 81 a8 50 bc 03 d7 2c bc f9 e3 9e 3b
       0.01552099 -0.012735487 -0.01054931 0.004848954
000060 d8 01 63 3b 9b f6 62 bd 5f 61 95 3c 08 bf f7 3a
       0.003463855 -0.055410963 0.018234907 0.0018901536
000070 f4 ea 97 bd 42 be 74 3c 28 3a b0 3c 70 fd a2 b9
       -0.074178606 0.014937939 0.021512106 -0.00031087874

layer2.1.weight f4 [32]
000000 97 72 9f 3f 82 00 94 3f ea 09 8d 3f e4 28 90 3f
       1.2456845 1.1562655 1.101865 1.1262479
000010 55 51 90 3f d5 da 8b 3f e8 22 8f 3f 6c 14 93 3f
       1.127482 1.0926157 1.1182528 1.1490607
000020 ac b8 92 3f 17 20 86 3f aa fd 8a 3f 6c cd 91 3f
       1.1462607 1.0478543 1.0858662 1.1390815
000030 a2 44 96 3f cc 1f 88 3f b4 1e 8f 3f 79 29 91 3f
       1.1739695 1.0634704 1.1181245 1.1340781
000040 5e 17 93 3f 71 52 90 3f bc 1d 94 3f 78 74 8b 3f
       1.1491506 1.1275159 1.1571574 1.0894918
000050 3e 8d 8a 3f 7d 23 8f 3f c9 73 92 3f f1 70 8b 3f
       1.0824354 1.1182705 1.1441585 1.0893842
000060 fb a5 8d 3f 6e d6 92 3f 48 3d 8f 3f 59 ad 8e 3f
       1.1066278 1.1471689 1.1190577 1.1146652
000070 0e 19 8c 3f f5 68 8c 3f e9 d3 8a 3f 69 16 90 3f
       1.0945146 1.096953 1.084592 1.1256839

layer2.1.bias f4 [32]
000000 4d 51 f0 bd 46 ec 84 3b 9c 92 39 bd b9 dc 85 bd
       -0.11734257 0.0040564863 -0.045305833 -0.0653624
000010 05 9b bd bd 7c 1b 2e be e4 7c c5 bc 32 33 5c bd
       -0.09258083 -0.17002672 -0.024107404 -0.05375976
000020 58 d1 8b bd 7b ed 02 be 9d 92 c9 bd 70 78 84 bc
       -0.068270385 -0.12785904 -0.098424174 -0.01617071
000030 14 36 a4 bd 21 c8 ef bd f9 8b 9c bd 44 78 1e be
       -0.08018127 -0.117080934 -0.07643885 -0.15475565
000040 e7 19 0c be e9 ce a9 bd 84 7b 60 bd 20 3b e1 bd
       -0.13681756 -0.08291418 -0.054805294 -0.10997605
000050 af 12 86 bd 9f 76 a3 bd d5 eb 5a 3b bf 5d 3e bd
       -0.06546532 -0.079816096 0.0033404727 -0.046476122
000060 c1 f1 9f bd 94 b5 2e bd 13 6e 7a bd 8e 03 28 be
       -0.07809783 -0.042653635 -0.06114013 -0.16407606
000070 ac e4 36 bd 9e 02 cc bd f2 3a 50 bd 17 ff 9a bd
       -0.044651672 -0.09961437 -0.050837465 -0.07568186

layer2.1.running_mean f4 [32]
000000 96 60 0e 3e 04 78 8b 3e 12 78 5d 3e 9d 3d 08 be
       0.13904032 0.27240002 0.21627834 -0.13304754
000010 da 12 08 3f 14 ce 34 be 42 0a 81 3e f6 47 06 3f
       0.53153765 -0.17656738 0.2520314 0.52453554
000020 bf 17 b0 be 31 d9 18 3e f8 73 84 bc 81 56 51 bd
       -0.34393117 0.14926602 -0.01616858 -0.051107887
000030 31 50 72 3e 36 73 4f be 78 69 7e 3d 23 a3 29 be
       0.23663403 -0.20258793 0.0621123 -0.16566138
000040 99 8f 5c bd 57 f4 38 be 71 63 96 3c e7 14 99 be
       -0.053847883 -0.18061958 0.018357964 -0.2989876
000050 37 a9 15 bd 02 a0 f7 3d 92 f9 6a 3e 28 05 c7 bc
       -0.03653833 0.12091066 0.22946766 -0.02429445
000060 83 8c ba 3e 57 44 d9 bd c0 e9 13 be 6f 87 f3 3c
       0.36435327 -0.10608738 -0.14444637 0.029727666
000070 e2 02 b0 3c 28 c5 20 3e 1e 0c 9a 3e 08 8a 9e 3e
       0.02148575 0.15700209 0.3008737 0.30964684

layer2.1.running_var f4 [32]
000000 08 1b fb 3e 91 37 05 3f 26 d1 5e 3f 1a 52 07 3f
       0.4904406 0.5203791 0.87037885 0.5285965
000010 31 21 48 3f a1 97 2e 3f 57 80 3a 3f fb 9c 43 3f
       0.78175646 0.6820012 0.7285208 0.7641141
000020 21 82 5b 3f 41 da 3d 3f 1f 8f 68 3f 3f fb 14 3f
       0.85745436 0.74161154 0.90843385 0.5819587
000030 fb ef 2d 3f 60 70 f0 3e 89 60 4c 3f 2d fb 2b 3f
       0.67944306 0.46960735 0.798348 0.6718014
000040 57 2b 61 3f 5e 26 20 3f c4 a8 44 3f a0 e5 24 3f
       0.87956756 0.62558544 0.76820016 0.6441288
000050 ff ac 04 3f 6a a5 7c 3f 8d 00 23 3f cb c6 3c 3f
       0.5182647 0.986899 0.63672715 0.73740834
000060 08 b2 1c 3f 6e e7 06 3f f5 8d fc 3e cd 62 2f 3f
       0.61209154 0.52696884 0.49327055 0.68510133
000070 7a 5f 3b 3f 3a ce 3b 3f 8c 81 61 3f 2a d6 1b 3f
       0.7319256 0.7336155 0.880883 0.60873663

fc.weight f4 [10, 1568]
000000 40 60 9c bc 46 15 d8 bb 1c ae 18 bd 3d 13 28 bd
       -0.019088864 -0.006594333 -0.03727542 -0.041033972
000010 24 7a 51 bc ad fc e0 3b 3d 1b 3d bd 3f 6e 9d 3b
       -0.012785468 0.006866059 -0.046168555 0.004804402
000020 6b 7e fa bb 76 29 b2 3c e9 1e 0b bd 6c 1e da bc
       -0.0076444647 0.021748286 -0.033965025 -0.026625834
000030 04 a6 d0 bd 58 22 15 bd 9b a7 42 3c 8d 5c 01 bd
       -0.10187915 -0.036409706 0.011880781 -0.031582404
000040 b2 e7 9b bd df e4 33 bd 68 16 cc bb aa 92 f5 bc
       -0.07612552 -0.04391944 -0.006228257 -0.029977161
000050 63 f5 98 bd 1c 24 4a bd ab 62 02 be cc 6e 0e bd
       -0.07468679 -0.049350843 -0.12732951 -0.034773633
000060 e9 bb a9 3c d5 cd 8f 3c 59 42 4f 3d 1f 09 04 3d
       0.020719485 0.017554203 0.050600383 0.03223526
000070 e8 cb a2 bd d4 92 b9 bd 90 e8 99 bd 62 8a 84 3c
       -0.07949048 -0.09061208 -0.07515061 0.016179267
000080 6d 21 f5 bb a4 52 90 3d 5a 44 4c 3d f4 de a7 bc
       -0.0074807913 0.070470124 0.049869873 -0.020492055
000090 c4 4c fa bc 25 56 7c 3a 28 4c e1 3c d9 72 e6 3c
       -0.030554183 0.00096258736 0.027502134 0.028130936
0000a0 06 67 99 3c 17 62 7d 3c 2e 08 49 bc b9 22 66 3b
       0.018725883 0.015465281 -0.012270017 0.003511591
0000b0 c7 64 e9 3c f1 b2 1e b9 af 28 26 bd 60 a0 90 bd
       0.028490437 -0.00015134715 -0.040566143 -0.07061839
0000c0 30 af 32 bd 7e 6c 82 3c 69 ec 06 bc cd 29 1f bd
       -0.043624103 0.015920874 -0.0082350755 -0.038858224
0000d0 ff 59 0a bc 45 3f ef bc 3d bb da 3c eb e8 dd bc
       -0.008444308 -0.029204974 0.02670061 -0.027088603
0000e0 97 65 1f bd ea b3 06 bd d9 a6 bc bc bd d4 0a 3d
       -0.038915243 -0.032886423 -0.023028778 0.03389429
0000f0 3c 5a c8 3c e1 6d 13 3d 62 fd 17 ba 07 73 51 bc
       0.02445709 0.03599346 -0.000579795 -0.012783772
000100 6a b9 a2 3c 90 6b 79 3b 83 d9 f2 3b e9 ea 27 3d
       0.019863803 0.0038058497 0.0074111833 0.040995512
000110 bf 31 37 3d de 8d 5d bd 85 db 0c bd c4 f4 dd bc
       0.044725176 -0.054090373 -0.034389038 -0.027094252
000120 a9 e6 67 3c 4e 01 b8 bd b9 1a 51 bd 34 dd 6c bc
       0.014154115 -0.08984624 -0.051050875 -0.014457036
000130 8f 10 85 bd a9 03 a8 3c 86 2b 0e bd 6b bc ca 3c
       -0.06497299 0.020509558 -0.034709476 0.024748048
000140 5b d0 4d bc 9f df 10 be d4 9d f9 bc 34 19 48 bc
       -0.012561883 -0.14147805 -0.030470766 -0.01221304
000150 19 55 a5 bc df 9a 9b bd dc dc c1 bc af 3c 93 bc
       -0.02018218 -0.07597899 -0.023664884 -0.017973272
000160 97 61 47 3d 67 a4 ce 3c a3 f5 66 3c 3c e6 80 bc
       0.048677053 0.025224878 0.01409665 -0.015734784
000170 1c 5f 5c bd 46 58 91 bd d7 1f a4 3c ac b3 1b 3d
       -0.05380164 -0.07096915 0.020034714 0.038013145
000180 de 08 de 3c 66 0d e7 3c 98 79 34 bd a4 09 02 bd
       0.027103838 0.028204631 -0.044061273 -0.031747475
000190 f7 02 9e bc 50 09 ba bb e3 ac e1 39 ed d1 a5 3c
       -0.019288523 -0.0056773797 0.00043044155 0.020241702
0001a0 79 d3 4c 3c 67 ea f6 bc 2c 2f 14 bc f1 b0 2e b9
       0.012501591 -0.030141069 -0.00904445 -0.00016659849
0001b0 47 d1 9d 3c cb 60 d0 3c 55 73 24 3c a9 32 0d 3d
       0.01926483 0.02543678 0.010037263 0.03447214
0001c0 4c 7b 71 bd e8 56 00 bd ea f8 10 bd f4 85 cd 3b
       -0.058955476 -0.03133288 -0.035393633 0.006272072
0001d0 bf 94 6c 3b 29 76 a1 3c 5c e0 46 3d a6 87 3a bd
       0.0036099402 0.019709663 0.04855381 -0.04553952
0001e0 ce 26 3d bd c5 c9 9f bd db 1f a4 bc 99 e7 1c bd
       -0.046179585 -0.07802156 -0.020034721 -0.038306806
0001f0 0b 6a d1 bc 10 2b 66 3c f7 8e 8d bd bd df 2d bd
       -0.02556326 0.014048353 -0.06912034 -0.0424497
000200 58 33 86 bc cb ff 51 3d 64 c2 fa bc 9a 13 6a bd
       -0.016381904 0.051269334 -0.03061027 -0.0571476
000210 f0 55 90 3c 6b 42 96 bc c6 3f f4 3b 01 3c 9e bc
       0.017619103 -0.018342217 0.0074538914 -0.019315721
000220 3f 74 7f 3d 02 01 6a bd c9 7d 9c bd 72 43 42 3c
       0.06236672 -0.057129867 -0.07641179 0.0118569005
000230 70 80 77 bc 3c 6d 81 3c 4e 20 2a ba 1a 88 5c bd
       -0.0151063055 0.015799157 -0.0006489799 -0.053840734
000240 d3 81 70 bd 75 65 c8 bd ca df 59 bd 3c 15 f5 3a
       -0.05871756 -0.097849764 -0.053191938 0.0018698345
000250 fd b5 49 bc 10 90 d0 ba fe 65 2a bb 6c e0 31 3d
       -0.012311456 -0.0015912075 -0.0026000733 0.043426916
000260 41 7e 20 bd b1 88 46 bc c1 a1 a9 bc f0 c7 b7 39
       -0.039182905 -0.012117551 -0.020707013 0.00035053445
000270 e9 55 98 3c 51 1e 96 bc e2 0a 09 bc 4f 04 a4 3c
       0.018595653 -0.018325003 -0.008364411 0.020021586
000280 55 5a 37 bb 57 92 c9 3a 4e 0f 13 3c f5 07 ae bc
       -0.0027977426 0.0015378696 0.008975817 -0.021244029
000290 55 f4 01 bd 04 d7 ef 3c 39 b5 17 3d 3e a6 61 39
       -0.031727154 0.029277332 0.03703806 0.00021519602
0002a0 20 29 d4 3c 17 47 f9 3c fd 0b 88 bd b0 53 4b bd
       0.025898516 0.030429406 -0.066429116 -0.049640357
0002b0 49 5d 74 ba db 5d 3e 3d ed e2 62 3d 78 e2 f0 bc
       -0.0009321762 0.046476226 0.055392195 -0.029404864
0002c0 a7 ce c6 3c a0 4b b5 3c e4 ba 11 3d 8e 34 69 3c
       0.024268461 0.022130787 0.035578623 0.014233721
0002d0 ea 71 c9 bb 8c 0d 5f 3d f5 42 49 bd e6 b2 17 3b
       -0.006147613 0.05445628 -0.04913612 0.0023147403
0002e0 42 0f 19 3d 4d cf aa 3c aa 60 8b bd c5 4c b6 bd
       0.037368067 0.020850802 -0.068055466 -0.089013614
0002f0 26 15 3e bd 95 96 8a 3c bf f3 83 bd 9f c2 5b bd
       -0.046406887 0.016917506 -0.06442975 -0.053652402
000300 a1 90 b3 bc e9 b4 ff bd bb 9d ab bd 4b 2b 9c bc
       -0.02191955 -0.12485678 -0.08379694 -0.019063612
000310 08 ec 1f 3c d2 aa 97 bb a3 d8 96 3c 59 1b 89 3b
       0.009760864 -0.0046285177 0.018413847 0.0041841683
000320 62 d9 f5 bc 48 bc 40 bd 53 98 60 bc b7 e0 a6 bc
       -0.030010883 -0.04705456 -0.013708192 -0.020370824
000330 95 d5 19 bc d3 84 b8 3b b7 23 36 3d 18 bd 1d 3d
       -0.009389301 0.0056310683 0.044467654 0.038510412
000340 0e e3 eb ba ea 99 ac bc 41 92 33 bd 2e 0d 3f bd
       -0.0017996745 -0.021069486 -0.04384065 -0.04664343
000350 0c fa 9e bd 28 91 38 3c 6c 62 01 be 61 e8 58 bd
       -0.077625364 0.011265077 -0.12635201 -0.05295599
000360 7f 1f 3d 3c fd 2b b9 3b 6c 6b 65 ba c3 d0 1b bd
       0.011543154 0.0056509958 -0.0008751664 -0.038040888
000370 88 68 f9 bb 81 23 d8 bc 4a ce 0f bd 22 e9 6d bc
       -0.007611338 -0.026384117 -0.035108842 -0.014520915
000380 b7 6f ef bc 27 c7 15 3c 78 8f 1e bd 2e b7 cd bc
       -0.029228074 0.00914172 -0.03871104 -0.025111761
000390 62 e9 a3 3c 98 aa c4 bc f1 fc cf bc 81 d3 d2 3c
       0.020008747 -0.024007127 -0.025389167 0.025735619
0003a0 be ea 82 3b 48 74 93 bc c1 7a 1f bd 56 32 b3 ba
       0.0039952686 -0.017999783 -0.038935427 -0.0013671617
0003b0 cb 81 4a bc db 00 24 bd 8d 74 e9 bb 81 be 11 3c
       -0.012360047 -0.04003988 -0.0071244896 0.008895517
0003c0 1a 32 dd bc 06 a4 21 3c b5 05 e1 3c 32 25 73 bc
       -0.02700143 0.009865766 0.027468542 -0.014840411
0003d0 d4 ee 21 bd de df de bb e5 c1 dd bb 8f a1 b3 bb
       -0.039534405 -0.0068015894 -0.006767499 -0.005481906
0003e0 74 5c 2b 39 df 34 20 3c 07 f1 97 3c 25 ae ec bb
       0.00016342272 0.00977823 0.018547548 -0.007222908
0003f0 e9 9b c9 bb e5 27 a4 bc 73 6b 03 bc 84 3f 72 bd
       -0.006152619 -0.020038554 -0.008021223 -0.059142604

fc.bias f4 [10]
000000 5f 11 68 bb 65 46 2b 3d 08 3e 80 3b 9e 38 6e 3c
       -0.0035410745 0.04181518 0.0039136447 0.014539866
000010 11 40 ec bb 27 86 93 bc f8 b0 cc bb 84 d7 5c 3c
       -0.0072097857 -0.018008305 -0.0062466823 0.013479117
000020 0d 7c fc bb ee 2d 68 bc
       -0.0077052177 -0.014171107
